ai_model/model_state_dict.pth (torch, 84440 bytes, 4 tensors)

conv1.bias f4 [16]
00000000: 0000 0000 3cfc 75bd 8b6b 1ebd 42fc 75bd
00000010: ecb5 81bd 3efc 75bd c49f 2cbd 4cc6 87bd
00000020: b7cf 57bd 46fc 75bd fe73 70bd eaae bcbc
00000030: e8ea 63bd e4d3 81bd 49fc 75bd 0000 0000
0.0 -0.060055003 -0.03867678 -0.060055025 -0.06333527 -0.06005501 -0.042144552 -0.06629619
-0.052688327 -0.06005504 -0.05870437 -0.023032624 -0.055643946 -0.06339243 -0.06005505 0.0

conv1.lin.weight f4 [16, 1280]
00000000: 6724 45bd 9d4d 85bd 3106 793d ddc3 2bbd
00000010: 9136 38bc c07b f4bc a218 e03c c94a 243d
00000020: 3150 883d e929 0d3d 3c0b 0f3d 2de5 7bbd
00000030: 636b b63b f258 2b3d 1c9b 4cbd 7a42 21bd
00000040: afcb 72bd 849c 113d c9bc fb3c c3b0 db3b
00000050: 6fcf 6d3d ab50 80bd 0e3d 1f3c bf36 93bc
00000060: e069 833d 5433 223d 3845 e03c 2301 2bbd
00000070: 3a26 81bd 5984 123d 42ce 033d 2e3b 48bc
00000080: 67c3 103d f18b 6bbc 23c5 88bd ed93 513c
00000090: 24ac 1a3c d541 d13c 6f76 863d bbc7 893d
000000a0: af7f 963b d350 3dbc 8cc8 35bd 7147 88bd
000000b0: 6441 e9bb 9355 1dbd ac99 213c f30e 813d
000000c0: 146a 81bd 5440 843d 7fc8 23bc dd82 d1bc
000000d0: 3c05 a6bb 06d1 4cbd ccde 0dbd e074 833d
000000e0: ccc4 813c d288 193d e070 11bd bfde 943c
000000f0: da96 353d b18f 743d 4952 4f3c 86a5 1dbc
00000100: 6bfa 30bd bf16 0b3d 978c 9e3a 6b20 7bbd
00000110: 237e 2f3d dd61 f5bc 2657 4d3d adbd 45bd
00000120: b150 823c 34f2 82bc e334 543d 67b1 aabb
00000130: 85d2 2abd f4df 56bd 7151 75bd 4ef2 433d
00000140: b046 083c cd25 203d 3562 813c 1037 00bc
00000150: 209c 853d 8250 85bd f4c2 01bd 3152 623c
00000160: 8495 a6bc fa4d 3c3d 66a0 2b3d 64ea 353d
00000170: 2250 8bbd 74de f63c 09e2 693d d48b 863d
00000180: 4600 2abd 2d9e a9bc 1730 66bc 76ee 33bd
00000190: aee0 713d eafa 3bbc 3c3c aa3a eecb 5d3d
000001a0: 01df d3bc bcb9 2ebd 56b8 8a3d 67ee 8a3d
000001b0: 3f37 283d 27ad 803d 637b 3fbd 35eb 62bd
000001c0: 2eb5 c5bc 47a1 7ebb f9d3 8d3b a089 c73c
000001d0: 65e7 dd3c f1de 803d d348 4eba 6b40 9b3c
000001e0: 7a00 343d b262 bfbc 0e4f 493c 22f2 c93c
000001f0: 3721 14bd e9c7 66bd 8e90 7c3d 395f 37bd
00000200: 1aa9 423b 2fa4 793d cca1 113d bd4f 1abc
00000210: 7cad 1dbc c4cf c8bc 06ef 8a3d 2f60 7a3d
00000220: 4cf3 283d e005 68bd 1899 39bd 4ff4 80bd
00000230: 7d4f 763d 5391 47bd b0b2 5a3d d443 5b3b
00000240: e362 7bbd 118d 7cbd 8562 1abb 0be8 e3bc
00000250: 7c45 e53c 07bb 7dbc 058d 0bbd 8d40 cabc
00000260: dcbb c7bc bc39 0fbb 974c 913a aea0 86bc
00000270: 1210 a33b ad71 d0bc 637a 7d3c f0ee a3bc
00000280: fe54 db3c f37c 2bbc c8c1 15ba ff2c 023d
00000290: f934 b93c 3d5c 613d 82fa 563d cef4 333d
000002a0: 539f ba3c 6f7e c1bc 36de 723d 82fe 5e3d
000002b0: 788e e7bc 4ebc bfbc f81b 50bd c46f ea3b
000002c0: 34bb 20bd 7174 8d3a 9653 683c face 32bb
000002d0: 5f99 903b 52cd 853d 76de 833c 3b03 03bc
000002e0: 68c0 1ebd 6f23 b9bc 549e eb3c 80aa 0dbd
000002f0: d66f eabb 2841 c6bc 4c54 823c e906 d13c
00000300: 3103 64bd 5e2a 443d ecba 84bd 4566 11bd
00000310: d832 7dbd c9dd e93c 9ba6 4cbd e8ec 6cbb
00000320: 279d 883c 52f6 2d3d 4e04 673d b72b 6ebc
00000330: 64ac 6b3d 2a95 b33c 6cb8 38bd a19a 81bc
00000340: f226 12bd 8a87 4c3d 3ebf af3c 7d3c 0cbd
00000350: d4cb f6bc 6cbb ce3c 1cd1 363c f6c5 82bc
00000360: bf18 11bc 1a1c 543d 38f7 f03c a3d5 873c
00000370: b217 8b3d ef5e 81bd 6e5a 57bd d198 4abd
00000380: 062a 523d a2bc 963c 52aa 1cbd 7335 6f3c
00000390: c63f 42bd cc7d 1fbd 7a65 913c 3aa9 96bc
000003a0: cb68 61bd 0117 b4bc 0a4d 763d d8a2 e63b
000003b0: 3649 133d d5a9 51bd fb9b c7bc b949 803d
000003c0: 3d9c 623d 3a35 b6bb 0760 0bbd a272 80bb
000003d0: 2155 83bd fd51 84bd 015e 043c 64c2 88bd
000003e0: 79fe 16bd e003 bbbc 6caa 38bd 90dc 90bc
000003f0: 12d1 1f3d 5fdb b43b 39f7 2cbc e979 f73c
-0.04813042 -0.06508944 0.06079692 -0.041934837 -0.011243478 -0.029844165 0.027355496 0.040110383
0.0665592 0.034463797 0.034922823 -0.061497856 0.0055670007 0.04183287 -0.04995261 -0.039370038
-0.05927628 0.035549656 0.030729668 0.0067044212 0.058059152 -0.06265386 0.009719146 -0.01797044
0.064166784 0.03959973 0.027376756 -0.04174913 -0.06306119 0.035770748 0.032179125 -0.012221141
0.0353426 -0.014376626 -0.06678226 0.012791616 0.009440456 0.025544086 0.06565558 0.06727549
0.004592858 -0.0115549145 -0.04438071 -0.06654251 -0.007118391 -0.038411688 0.009863298 0.063016795
-0.06319061 0.06457582 -0.009996532 -0.025575096 -0.005066542 -0.050004028 -0.034636304 0.064187765
0.01584091 0.037483998 -0.035508037 0.01817262 0.044333316 0.059707347 0.012653896 -0.009621983
-0.043207567 0.03395724 0.0012096342 -0.061310213 0.042844903 -0.029953891 0.05013194 -0.048276592
0.015907617 -0.015984632 0.05180825 -0.0052091363 -0.041704673 -0.052459672 -0.05989212 0.0478385
0.008317634 0.03909855 0.0157939 -0.007825628 0.06523919 -0.06509496 -0.031680062 0.013813541
-0.020334966 0.0459728 0.041901015 0.044412985 -0.068023935 0.03013537 0.05710033 0.06569639
-0.041504167 -0.020705307 -0.014049551 -0.043928586 0.059052162 -0.011473397 0.0012987922 0.05414956
-0.025863172 -0.0426576 0.067734405 0.06783753 0.04106831 0.06283026 -0.04674853 -0.055400092
-0.024134245 -0.0038853453 0.0043282476 0.024357617 0.027087877 0.06292523 -0.0007869128 0.018951615
0.043945767 -0.023362491 0.0122869145 0.02465159 -0.03616449 -0.056342993 0.061661296 -0.044768546
0.0029702843 0.060947593 0.035554692 -0.009418425 -0.009623881 -0.024513133 0.06783871 0.061126884
0.04124765 -0.056646228 -0.045312017 -0.06296598 0.0601344 -0.048722576 0.053393066 0.0033457177
-0.061373603 -0.06165797 -0.0023557257 -0.027820608 0.027987234 -0.015486485 -0.034070034 -0.024688983
-0.02438157 -0.002185448 0.0011085448 -0.01643404 0.004976281 -0.02544483 0.015471074 -0.020011395
0.026773926 -0.010466802 -0.00057127746 0.031781193 0.022608267 0.055019606 0.052484997 0.043934636
0.02278105 -0.023619859 0.059293948 0.054441936 -0.028266177 -0.02340522 -0.050807923 0.007154437
-0.03924103 0.0010792149 0.014180085 -0.0027284012 0.0044128145 0.06533302 0.016097289 -0.007996376
-0.03875771 -0.022599904 0.02876202 -0.03458643 -0.007154445 -0.02420099 0.015909337 0.02551599
-0.055667106 0.047891967 -0.06480965 -0.035497922 -0.061816067 0.028548138 -0.049963575 -0.003615195
0.016676499 0.042471237 0.05640059 -0.01453679 0.05753745 0.021921713 -0.045097753 -0.015820803
-0.035681672 0.049933948 0.021453496 -0.034237374 -0.03012649 0.025235854 0.011158254 -0.015963536
-0.008855998 0.051784612 0.029414758 0.016581362 0.06791629 -0.06316935 -0.052576475 -0.049462143
0.051309608 0.018400494 -0.038248368 0.014600146 -0.0474241 -0.03893833 0.017748583 -0.01839124
-0.05503158 -0.021983625 0.060132064 0.0070384555 0.03595849 -0.051187355 -0.02436637 0.062640615
0.05532478 -0.0055605443 -0.034027126 -0.0039199153 -0.064127214 -0.064609505 0.008079053 -0.06677702
-0.036863778 -0.022828996 -0.045084402 -0.017683297 0.039017744 0.005519315 -0.010556989 0.030209498

conv2.bias f4 [3]
00000000: f4cd cd3a 9d4b 433d db15 1cbd
0.0015701638 0.047679532 -0.03810678

conv2.lin.weight f4 [3, 16]
00000000: e91f b0be bfc9 c2be 33a5 a1be e32e c03e
00000010: 3ed9 5d3e 4a5e 60be 48d8 d63e 5921 c8bd
00000020: ed64 eebe fd0c b3be 0c04 cebe b612 89be
00000030: d51f d8bd f7c4 b43e edbf ff3d 48ac 9d3e
00000040: b7a1 0d3f 1495 54be 44e2 863e 7849 cc3d
00000050: bc54 fa3c 4104 72be 2633 63be 185f e73d
00000060: ae8a fabe 4199 fcbe 2196 34be 8e27 303e
00000070: a1a0 6fbd 9665 243d 6c8b f0be c8d5 023d
00000080: b119 153e 0cba b33d 2477 bbbe 92ab ae3e
00000090: 8756 dcbe 86a0 afbd 4763 14be 6b3a 98be
000000a0: b50a f1be 50bb a13e 1175 ecbe 5b74 66bd
000000b0: 54f7 8ebe bf31 68be 6892 5f3e 0fa9 00bf
-0.34399346 -0.38044545 -0.3157135 0.37535772 0.21664903 -0.21910968 0.41961884 -0.097719856
-0.46561375 -0.34970847 -0.40237463 -0.26772088 -0.105529465 0.35306522 0.12487779 0.30795503
0.5532488 -0.20759994 0.26344502 0.099749506 0.030557983 -0.23634435 -0.2218748 0.112974346
-0.4893393 -0.49335673 -0.17635395 0.17202589 -0.058502797 0.040135942 -0.4698137 0.03194216
0.14560582 0.0877572 -0.36614335 0.34115273 -0.43034765 -0.08575539 -0.14490996 -0.2973207
-0.4707848 0.3158822 -0.46183065 -0.05626331 -0.2792307 -0.22675227 0.21833193 -0.5025796
